Practice/Transfer Learning for Expanding Advertiser Audiences/runs/2025-05-04-214536/user_encoder_best.pth (torch, 30404 bytes, 9 tensors)

gender_embed.weight f4 [2, 32]
0	0x3ff315b0	1.8990993
1	0x3fba14cc	1.4537597
2	0x3f60c833	0.8780548
3	0xc0038ea9	-2.0555823
4	0x3f33b0d0	0.7019167
5	0xbfa20a4c	-1.2659392
6	0xbc8e7e2b	-0.017394146
7	0xbfcc9d26	-1.5985458
8	0xbf43c24f	-0.76468366
9	0x3fd59940	1.6687393
10	0xbed5139a	-0.41616517
11	0xbfb2e74c	-1.3976836
12	0xbf451629	-0.7698694
13	0xbf057a0d	-0.5213936
14	0xbf487ed9	-0.78318554
15	0x3f495db9	0.78658634
16	0x3fcd5b26	1.6043441
17	0xbe25e4e3	-0.16200595
18	0xbf03cc62	-0.5148374
19	0x3edc9958	0.43085742
20	0xbf429528	-0.76008844
21	0x3f8e15db	1.110042
22	0x3f481884	0.7816241
23	0x3fda7c45	1.7069174
24	0x3fa4531d	1.2837864
25	0x3fa7cbac	1.3109031
26	0x3f15fcc8	0.5858884
27	0x3faa22f1	1.3291913
28	0xbe6003b0	-0.21876407
29	0x3da85530	0.08219373
30	0xbe924f61	-0.28576186
31	0x3f59953d	0.84993345
32	0xbfab63e9	-1.3389865
33	0xbf5ea362	-0.8696805
34	0xbe737640	-0.23775578
35	0x3fdfa554	1.7472329
36	0x3e9fcf1a	0.31212693
37	0xbedb02a9	-0.42775467
38	0x3ea709d4	0.32624686
39	0xbf487a55	-0.78311664
40	0xbfc4f6a8	-1.5387774
41	0x3f81a1fb	1.0127558
42	0xbf6093db	-0.8772561
43	0xbf1ce1e1	-0.61282164
44	0xbfa378de	-1.2771261
45	0x4007aa6e	2.1197772
46	0xbfa27ebd	-1.2694927
47	0xbf03af26	-0.5143913
48	0xbf63528d	-0.8879784
49	0xbf1d6c2a	-0.6149317
50	0x3d160550	0.03662616
51	0x3f0b50c7	0.5442013
52	0xbef516c0	-0.4786892
53	0x3f9a050f	1.2032794
54	0xbf49ed4f	-0.7887773
55	0xbf31c1c5	-0.69436294
56	0xbfb1a3c1	-1.3878099
57	0x3d4d02ed	0.05005162
58	0xbdd651ca	-0.10464819
59	0x3f35ea37	0.7106051
60	0xbe0bebe2	-0.13664201
61	0x3fea7952	1.8318274
62	0xbf9967fe	-1.1984861
63	0x3fb26dca	1.3939755

country_embed.weight f4 [5, 32]
0	0x3fb7a496	1.4347103
1	0x3f562b31	0.83659655
2	0x400e24fb	2.221007
3	0x3f006dbd	0.5016745
4	0x3ec397be	0.38201708
5	0xbe483860	-0.19552755
6	0xbf8352a9	-1.0259601
7	0x3fa1c513	1.2638267
8	0xbe3b8472	-0.18312243
9	0x3f09123b	0.5354344
10	0x3d9161ae	0.07098709
11	0x3edcab47	0.43099424
12	0x3f1281ea	0.57229483
13	0xbf200bd2	-0.62518036
14	0xc00be805	-2.1860363
15	0xbf3c1b78	-0.73479414
16	0x3bd76189	0.0065729064
17	0xbea6cb3a	-0.32576925
18	0xbfae6352	-1.362406
19	0xbf11b45e	-0.56915843
20	0x3f043fa3	0.516596
21	0x3f05465f	0.520605
22	0x3f907488	1.1285563
23	0x3ca4a7bb	0.020099511
24	0x3f3d1590	0.73861027
25	0xbef3e145	-0.47632805
26	0xbf885d38	-1.0653448
27	0x3f193f82	0.5986253
28	0xbfdb94a5	-1.7154738
29	0xbf5a01bc	-0.85158896
30	0x3faa3bf4	1.3299546
31	0x3eecd986	0.46259707
32	0xc01df468	-2.4680424
33	0x3efe517e	0.4967155
34	0x3f5148d6	0.81751764
35	0x3c8f299c	0.017475896
36	0x3f28c30f	0.65922636
37	0x3f0cadca	0.5495268
38	0x3f85ebb3	1.0462555
39	0xbed67f48	-0.41893983
40	0xbe2eb7bd	-0.17062278
41	0x3f3ca522	0.7368947
42	0x3ed583c9	0.41702107
43	0x3e3a732d	0.18207999
44	0x3e880f37	0.26574108
45	0x3fa06be6	1.2532928
46	0xbad1fa63	-0.0016020056
47	0xbe8e1836	-0.27752846
48	0xbfbb8c12	-1.4652121
49	0xbddfeeab	-0.10934194
50	0xbf1cab66	-0.61199033
51	0x3ee50d6a	0.44736797
52	0x3f393917	0.7235274
53	0x3ddbb5cc	0.107280344
54	0xbec172c6	-0.37782878
55	0x3f06fe9f	0.5273227
56	0x390de658	0.00013532618
57	0x3e898829	0.26861694
58	0x3df3b321	0.118994005
59	0x3f3ed497	0.74543136
60	0x3f8993b0	1.0748196
61	0x3ea6ead7	0.32601044
62	0x3f30e5ba	0.69100535
63	0x3ed6c13e	0.41944307
64	0x3ff73333	1.93125
65	0x3f7f025b	0.9961297
66	0xbfb2846b	-1.3946661
67	0xbf8fa019	-1.1220733
68	0xbe08eb4b	-0.13371007
69	0x3fcf747c	1.6207423
70	0x3f24b2f9	0.6433559
71	0x3f18398d	0.59462816
72	0x3f910403	1.1329349
73	0x3d33929f	0.043841
74	0xbfe65ed2	-1.7997687
75	0x3f71d38b	0.94463414
76	0xbeb81cf5	-0.35959592
77	0x3f870c23	1.0550579
78	0xbf2ca200	-0.6743469
79	0x3f231752	0.6370746
80	0xbf7b8219	-0.9824539
81	0x3f73502e	0.9504422
82	0x3fcb85b9	1.5900184
83	0x3fb90b4a	1.445657
84	0x3e8634a6	0.26212043
85	0xbe592ed2	-0.21209267
86	0xbf3928a8	-0.7232766
87	0x3dd64fb0	0.10464418
88	0x3ea81b5a	0.32833368
89	0x3f765021	0.96216017
90	0xbefcb1ea	-0.49354488
91	0x3fcdd74a	1.6081326
92	0xc01d87ce	-2.4614139
93	0xbed49d5f	-0.41526315
94	0xbf968b67	-1.1761292
95	0x3f4c7c8f	0.7987756
96	0xbff202d8	-1.8907118
97	0x3e653218	0.2238239
98	0x3cc7549c	0.024332337
99	0xbebb52c2	-0.36586577
100	0x3e9e84e3	0.3096076
101	0xbf3d9db0	-0.7406874
102	0x3e303567	0.17207871
103	0xbf85c859	-1.0451766
104	0xbfc84628	-1.564641
105	0x3fac83b6	1.3477695
106	0x3fa370ec	1.2768836
107	0x3d5b54ef	0.053547796
108	0xbfbfd19f	-1.4985846
109	0x3f447de1	0.76754576
110	0x3f4452e0	0.7668896
111	0x40030be2	2.0476003
112	0x3d055e0c	0.032560393
113	0x3de938bb	0.113877736
114	0xbf55ae58	-0.8346915
115	0xbe5044c8	-0.20338738
116	0xbf6a8a4e	-0.91617286
117	0xbfcb6078	-1.5888815
118	0xbf8ecc84	-1.1156163
119	0xbf092123	-0.5356619
120	0xbef8c82c	-0.4859022
121	0xbfbb319b	-1.4624513
122	0xbff9e90c	-1.9524245
123	0x3df44cee	0.11928736
124	0x3f837dc1	1.0272752
125	0xbf1142a0	-0.56742287
126	0x3f2c4109	0.67286736
127	0x3f3835c0	0.71957016
128	0x3fe18bd8	1.7620802
129	0xbf69ec1b	-0.91375893
130	0x3f77f9a4	0.96865296
131	0xbead5e89	-0.33861187
132	0xbf943c87	-1.1580971
133	0x3eae809e	0.34082502
134	0x3f006f58	0.501699
135	0x3faeea94	1.3665338
136	0x3f013e3e	0.504856
137	0x400749e2	2.1138844
138	0xbf0091bd	-0.5022238
139	0xbf6ac95a	-0.9171349
140	0x3e38ea8b	0.18058221
141	0x3f86d3cf	1.0533389
142	0x3fa29e37	1.2704533
143	0x3ef4d9b3	0.4782234
144	0xbf4edf34	-0.8080933
145	0xbf81e9e8	-1.0149508
146	0xbf052806	-0.52014196
147	0xbf1882b4	-0.5957444
148	0x3e1df59e	0.15425727
149	0x3ee45cf6	0.44602174
150	0xbe0c9c6e	-0.13731548
151	0xc01378cb	-2.3042476
152	0xbed0e495	-0.40799394
153	0x3f8cdb94	1.100451
154	0xbfe594ce	-1.7936037
155	0x3fc0158d	1.5006577
156	0x3e9601d3	0.29298267
157	0xbf02e2ff	-0.5112762
158	0x3f828b69	1.0198795
159	0x3fd8a767	1.6926087

interest_embed.weight f4 [101, 32]
0	0x3cddc7d1	0.027072819
1	0x3fcafa56	1.5857646
2	0x3e6044e5	0.21901281
3	0xbf8ce616	-1.1007717
4	0xbf0c6ad7	-0.54850525
5	0x3da14bcf	0.078757875
6	0x3ec4aa4d	0.3841118
7	0x400149f3	2.0201385
8	0xbdbfc9e4	-0.093646795
9	0xbf5d9b60	-0.8656521
10	0xbffe1c0f	-1.9852313
11	0xbf92a6d1	-1.1457158
12	0x3ba44435	0.0050130137
13	0x3ddcd8a5	0.10783509
14	0x3e311a95	0.17295296
15	0x3eec0fe0	0.46105862
16	0xbf7d11b6	-0.9885515
17	0x3e9e2fec	0.30895936
18	0xbf0e9f63	-0.55711955
19	0x3edb1321	0.42788032
20	0xbf6c07d3	-0.9219944
21	0xbdda0cd8	-0.10646981
22	0xbec9f592	-0.39445168
23	0x3fbeb570	1.489912
24	0x3fad0db9	1.3519813
25	0xbf3471b0	-0.70485973
26	0x3f5d53b9	0.86455876
27	0x3f0acab0	0.54215527
28	0x3f136c42	0.57587063
29	0x3f129de6	0.57272184
30	0x3f00e752	0.50352967
31	0x3e4334eb	0.19063155
32	0xbf2b65e2	-0.66952336
33	0x3f040246	0.5156597
34	0xbfc43402	-1.5328372
35	0xbfc6b8c5	-1.5525137
36	0xbfb9fd12	-1.4530356
37	0x3ec22c1b	0.37924275
38	0xbda8c450	-0.08240569
39	0x3f3b83d5	0.73248035
40	0xbfcf0942	-1.61747
41	0xbd9ae518	-0.075632274
42	0x3f3530da	0.70777667
43	0x3c97c8fe	0.018528458
44	0x3fa6e732	1.3039305
45	0x3e8671c1	0.26258662
46	0xbffe83ee	-1.9884012
47	0x3c632602	0.013864042
48	0xbfb4e1e3	-1.4131435
49	0x3f2386d1	0.6387759
50	0xc0252404	-2.5803232
51	0xbca1bd0a	-0.019743461
52	0xbe107385	-0.14106567
53	0xbf3b28a8	-0.7310891
54	0x3fdf9551	1.7467443
55	0x3d1c0e90	0.038099825
56	0x3f94e4fa	1.1632378
57	0x3ffb1521	1.9615823
58	0x3f43bf9a	0.76464236
59	0x3f8325d0	1.0245914
60	0x3ee2eee1	0.44322875
61	0x3f907d0a	1.1288159
62	0x3e8a7e0e	0.27049297
63	0xbd4a7f91	-0.049438063
64	0x3f7435f8	0.9539485
65	0xbf84231e	-1.0323217
66	0xbf10173e	-0.56285465
67	0xbed2c8c1	-0.41168788
68	0xbe846428	-0.25857663
69	0xbe568d17	-0.20952259
70	0xbf403484	-0.7508013
71	0x3c4f5efa	0.0126569215
72	0x40012295	2.0177357
73	0x3e9bdbd2	0.30441147
74	0x3f7218a2	0.94568837
75	0x3f23f878	0.6405101
76	0xbd737182	-0.05943442
77	0x3e2c7954	0.16843158
78	0x3fa8aca2	1.3177683
79	0x3f36a78c	0.71349406
80	0x3ec17da0	0.37791157
81	0xbf29e7c1	-0.66369253
82	0x3f64860e	0.8926705
83	0xbf7f4b66	-0.99724424
84	0x3edd057f	0.43168256
85	0x3fa1a308	1.2627878
86	0xc0143b7b	-2.3161304
87	0xbfa07559	-1.2535812
88	0x3e7659b5	0.24057658
89	0xc0051abf	-2.0797575
90	0xbdc28b5d	-0.09499238
91	0xbf86586d	-1.0495735
92	0xbf4ed064	-0.8078673
93	0xbc60b618	-0.0137152895
94	0x3fa16202	1.2608035
95	0xbf87ae8a	-1.060014
96	0x3ed64336	0.41848153
97	0xbf3ec22d	-0.7451504
98	0x3f84f86b	1.0388311
99	0xbfb87de6	-1.4413421
100	0x3f042b7f	0.5162887
101	0x3ea71617	0.3263404
102	0x3cc0b96a	0.023525912
103	0x3de26bfa	0.11055751
104	0x3ece068b	0.40239367
105	0x3f3c1b18	0.7347884
106	0xbfdbd9c0	-1.7175827
107	0xbf60d4d6	-0.8782476
108	0x3ee6926d	0.4503359
109	0x3e9f34ac	0.31094873
110	0xbf1da44f	-0.6157884
111	0x3dd0d6c7	0.101972155
112	0x3f5df45d	0.86700994
113	0x3e3be272	0.18348101
114	0x3f4ea598	0.80721426
115	0xbd40b7c8	-0.047050267
116	0x3f0ff2af	0.5622968
117	0xbf3da178	-0.74074507
118	0xbf06c3d8	-0.52642584
119	0x3d5e3b7c	0.054255947
120	0x3f1d7613	0.6150829
121	0x3fd4be9c	1.6620669
122	0xbd674902	-0.05646611
123	0x3f8994e4	1.0748563
124	0x3f6a0d66	0.91426694
125	0xbf259f1d	-0.6469591
126	0xbf0d9277	-0.5530161
127	0xbec67220	-0.38758945
128	0xbf40ab47	-0.7526135
129	0x3eca45f5	0.39506498
130	0x3e2daf13	0.16961317
131	0xbfa6deb1	-1.303671
132	0xbe8a11bf	-0.26966664
133	0xbf5c2a04	-0.8600161
134	0xbf0d4187	-0.5517811
135	0x3ff825a7	1.938649
136	0x3febb8f0	1.8415813
137	0x3fd90ad3	1.6956428
138	0x3d66c40e	0.056339316
139	0xbe5d8eb3	-0.21636467
140	0xbfe6af1a	-1.8022187
141	0xbf230aeb	-0.63688534
142	0xbeb4e3f5	-0.35330167
143	0x3fee4fd9	1.8618118
144	0xbe398960	-0.1811881
145	0x3e426161	0.1898246
146	0x400b4459	2.1760466
147	0x3fe0852e	1.7540643
148	0x3e9a204b	0.30102763
149	0x3f31eb01	0.6949921
150	0xbe4918e0	-0.19638395
151	0x3f2ac48e	0.6670617
152	0xbe0db620	-0.13839006
153	0xbf98f750	-1.1950474
154	0xbf9c0186	-1.2187965
155	0x3ee72d0f	0.45151564
156	0xbf104743	-0.56358737
157	0x3f5f3001	0.87182623
158	0xbf107309	-0.5642553
159	0xbea18358	-0.3154552
160	0x3f1b4038	0.60644865
161	0xbde6a829	-0.11262543
162	0xbe790fa0	-0.24322367
163	0x3e123763	0.14278941
164	0x3fc5bc13	1.5448021
165	0xbf822445	-1.0167319
166	0xbf0555d8	-0.5208411
167	0xbdd84b48	-0.10561234
168	0xbf71e445	-0.94488937
169	0xc01f7bc9	-2.4919302
170	0xbeb153bd	-0.346342
171	0x3f433981	0.7625962
172	0x3f7802bc	0.9687917
173	0xbe89d068	-0.26916814
174	0xbf60ad57	-0.87764496
175	0x3f5d8cc7	0.86542934
176	0x3da27ba3	0.07933738
177	0xbf83ce9b	-1.0297426
178	0xbf3494d0	-0.7053957
179	0xbeace8d1	-0.33771375
180	0x3f63e488	0.89020586
181	0xbe5bcc3d	-0.2146463
182	0x3ddbe365	0.107367314
183	0xbd81b7d7	-0.06333893
184	0x3f6d12b6	0.92606676
185	0xbfce9f31	-1.6142331
186	0x3f87b845	1.060311
187	0x3f949865	1.1609007
188	0xbdbcbc56	-0.0921561
189	0xbe9c7596	-0.3055846
190	0xbdf86003	-0.12127688
191	0x3f376464	0.7163756
192	0x3f3c850c	0.73640513
193	0xbfb1a581	-1.3878633
194	0xbf0dcdff	-0.5539245
195	0x3f1bf038	0.6091342
196	0xbefdeeba	-0.49596196
197	0xbf124950	-0.57143116
198	0xbdb1a37c	-0.0867376
199	0xbfd934cd	-1.6969239
200	0xbf0cc7a9	-0.5499216
201	0xbf38b964	-0.72157884
202	0x3ec346e3	0.3814002
203	0x3e1d03bd	0.15333457
204	0x3f8521db	1.0400957
205	0xbf3075a8	-0.6892953
206	0xbf16e054	-0.5893605
207	0x3f35ebd1	0.7106295
208	0xbf06ee24	-0.52707124
209	0x3f8da10a	1.106477
210	0xbf077b82	-0.5292283
211	0x3fb585da	1.4181473
212	0x3f547b4a	0.83000624
213	0xbd77427f	-0.06036615
214	0x3f3c760e	0.7361764
215	0x3f82aed8	1.0209608
216	0x3f2f694e	0.6852006
217	0xbfac7541	-1.3473283
218	0x3d849318	0.064733684
219	0xbf8abfa5	-1.0839735
220	0xbdab1a94	-0.08354679
221	0x3f8f9506	1.1217353
222	0x3f419e00	0.75631714
223	0xbf2a295e	-0.6646937
224	0xbfb83489	-1.4391032
225	0x3ef77de3	0.4833823
226	0xbf88b5ec	-1.0680518
227	0x3da10dec	0.078639835
228	0xbee097e2	-0.43865877
229	0xbf82922c	-1.0200858
230	0xbf23d48f	-0.63996214
231	0x3f46c818	0.7764907
232	0x3fcd106a	1.6020634
233	0xbdf5cc8c	-0.12001905
234	0xbf091d3e	-0.53560245
235	0x3de7cd68	0.11318475
236	0x3daf5fff	0.08563232
237	0xbf700bfb	-0.9376828
238	0xbfa1037a	-1.2579186
239	0x3f86b5eb	1.0524267
240	0x3f8d3ad8	1.1033583
241	0xbf2e1762	-0.6800443
242	0x3dd3840f	0.103279226
243	0x3d6b8477	0.057499375
244	0x3e3039bb	0.17209522
245	0x3f9a9b0e	1.2078569
246	0xbfa46aa3	-1.2845043
247	0xbfb2cc97	-1.3968686
248	0xbf8f77fd	-1.1208493
249	0x3eb3dee3	0.35130987
250	0x3eda1a74	0.42598307
251	0xbf2aa49d	-0.6665743
252	0x4034c37e	2.824432
253	0x3ff5fbb3	1.9217438
254	0x400713af	2.1105764
255	0xbf88561b	-1.0651277

bn_cont.weight f4 [2]
0	0x3f722ee5	0.94602805
1	0x3f72e803	0.9488527

bn_cont.bias f4 [2]
0	0xbc8cd1af	-0.017189829
1	0xbc82ed9a	-0.015982438

bn_cont.running_mean f4 [2]
0	0x3e6135ab	0.21993129
1	0x406b3d86	3.67563

bn_cont.running_var f4 [2]
0	0x3c4d6ae3	0.012537691
1	0x3f581bce	0.84417427

fc.weight f4 [32, 98]
0	0xbc082a63	-0.008310887
1	0x3cdf0df0	0.027228326
2	0x3c2dc7c4	0.01060671
3	0xbc4bda14	-0.012442131
4	0xbce7624a	-0.02824511
5	0x3ac093db	0.0014692502
6	0x3cac69c8	0.021046534
7	0x3da88d98	0.08230132
8	0x3dd91449	0.10599572
9	0xbdbed17a	-0.09317298
10	0xbd840d68	-0.064478695
11	0xbbfca9b5	-0.0077106603
12	0x3c4779b2	0.0121750105
13	0x3d09ade8	0.033613116
14	0x3deae9d5	0.11470381
15	0x3d2d2208	0.042268783
16	0xbd673e63	-0.05645598
17	0x3c2a8ed4	0.010410029
18	0x3d67be45	0.05657794
19	0x3ca0a81c	0.01961141
20	0xbd7662e0	-0.06015289
21	0xbc332c2b	-0.010935823
22	0xbda1c094	-0.078980595
23	0xbcdd3be8	-0.027006105
24	0x3db76fbf	0.08956861
25	0xbd262331	-0.040560905
26	0x3d90a2cb	0.070623
27	0xbdbb4294	-0.09143558
28	0x3dc7f4c1	0.0976348
29	0x3cd1e1e9	0.025620418
30	0x3db3be02	0.087764755
31	0x3c04a7a1	0.0080966065
32	0xbbf90340	-0.0075992644
33	0xbd8635c5	-0.065532245
34	0xbd27c21c	-0.0409566
35	0xbd5c64a9	-0.053806935
36	0x3dc064be	0.09394215
37	0xbd4f8bfc	-0.05067061
38	0xbc4bdec8	-0.012443252
39	0xbde140b5	-0.1099867
40	0x3c418e90	0.011813775
41	0xbd220893	-0.03955896
42	0xbd85f04c	-0.065399736
43	0xbb5432f4	-0.0032379003
44	0xbd9fc15e	-0.07800554
45	0xbcd20d93	-0.025641238
46	0xbd8a0bc8	-0.06740528
47	0x3d4645dd	0.04840647
48	0xbd845324	-0.0646117
49	0x3a860d98	0.001022744
50	0x3d0eff12	0.034911223
51	0xbdc53d2d	-0.09630809
52	0x3d510a69	0.05103532
53	0x3dc69544	0.09696439
54	0xbd3e5451	-0.04646713
55	0xbb8c591c	-0.0042830836
56	0x3c7c1508	0.015385874
57	0x3d8bd3b9	0.06827492
58	0x3dc23ce9	0.09484274
59	0xbdcddbb0	-0.10051668
60	0xbd8929e5	-0.06697444
61	0xbd97a133	-0.07403793
62	0xbcf6127e	-0.030038115
63	0xbd1428c3	-0.036171686
64	0xbd7d97b9	-0.061912272
65	0x3da81459	0.08207006
66	0xbd719638	-0.05898115
67	0xbd79917d	-0.060929764
68	0xbdb15a09	-0.08659751
69	0xbd5c9090	-0.053848803
70	0x3de10a61	0.10988308
71	0x3cb05294	0.021523751
72	0xbcbdd08f	-0.023170738
73	0xbd5df15d	-0.05418526
74	0xbdb7e138	-0.08978504
75	0xbcfe2aee	-0.03102633
76	0x3d5444b6	0.05182334
77	0x3da34b87	0.0797339
78	0x3db54efb	0.08852955
79	0x3b7ba8a8	0.0038400088
80	0xbc9b86ba	-0.018985141
81	0xbd519233	-0.051164817
82	0x3dda2481	0.10651494
83	0xbda107e6	-0.07862835
84	0x3d0f9a4c	0.03505926
85	0x3ababcba	0.0014246919
86	0x3dd7c45b	0.10535499
87	0x3d91eb6e	0.07124983
88	0xbc388c0b	-0.011263858
89	0xbdc38332	-0.09546508
90	0x3ca9e84c	0.02074065
91	0xbdad11de	-0.084506735
92	0xbbc453c4	-0.005991431
93	0x3b14d317	0.0022708827
94	0x3d3e748c	0.046497867
95	0x3bd15199	0.006387901
96	0xbd88ff3a	-0.066893056
97	0xbda06774	-0.07832232
98	0xbd81b03d	-0.06332443
99	0x3d42d242	0.0475638
100	0xbc9227a7	-0.017841173
101	0xbcd80d92	-0.026373658
102	0xbcad789d	-0.021175677
103	0xbdcf4474	-0.10120478
104	0x3d68eda7	0.056867268
105	0x3d00594a	0.031335153
106	0x3d8beab1	0.06831873
107	0x3df2bc1e	0.11852287
108	0xbd99fcc0	-0.07518911
109	0xbda78bed	-0.081809856
110	0xbda5880f	-0.08082592
111	0x3d5c38fb	0.05376528
112	0x3d5e3355	0.054248173
113	0x3decb271	0.115574725
114	0xbd0f4fdc	-0.03498827
115	0xbd5139fb	-0.051080685
116	0x3d59a7c5	0.053138513
117	0xbd9141b0	-0.07092607
118	0xbdb3be6f	-0.08776557
119	0x3d44a281	0.04800654
120	0xbd79bb84	-0.060969844
121	0x3c309b6c	0.010779243
122	0x3d8debda	0.06929751
123	0x3e03b1a8	0.12860739
124	0x3d067a85	0.032831687
125	0xbd83e590	-0.0644027
126	0x3cfe7a26	0.031064104
127	0x3dbea762	0.093092695
128	0xbd9274ac	-0.0715116
129	0x3a5285d9	0.0008030809
130	0xbd889d72	-0.06670655
131	0xbd37bd60	-0.044858336
132	0x3ccf23cf	0.02528563
133	0x3cb236f6	0.021754723
134	0x3d21d9d7	0.03951439
135	0xbd904dc6	-0.07046084
136	0xbc1814db	-0.009282316
137	0x3d49b61d	0.049245942
138	0x3b26b30a	0.0025436305
139	0xbcdc22ba	-0.026872028
140	0xbd8eed35	-0.069788374
141	0x3dd6ff64	0.10497931
142	0xbdb4011e	-0.087892756
143	0xbd822e42	-0.06356479
144	0x3d98e953	0.07466378
145	0xbd5658db	-0.052330833
146	0x3d38e905	0.0451441
147	0xbd3819b3	-0.044946384
148	0xbad5f73e	-0.0016324294
149	0xbce641ab	-0.028107485
150	0x3db38b91	0.087668546
151	0x3d85489a	0.06507988
152	0xbc183e7b	-0.00929224
153	0x3b27b1a2	0.0025588055
154	0xbd12c8ae	-0.035835914
155	0xbd2c15fc	-0.042013153
156	0xbd263f4f	-0.04058772
157	0x3d5a6b18	0.05332479
158	0xbce4a9b6	-0.027912956
159	0x3d8abee1	0.067746885
160	0x3beed14b	0.0072881333
161	0x3c514d9d	0.012774852
162	0xbdc90c1e	-0.09816764
163	0xbb8e1efe	-0.0043371907
164	0xbdfd6eb7	-0.12374633
165	0x3c793bb8	0.015211992
166	0x3cc79753	0.02436415
167	0xbd2ee30d	-0.042697
168	0x3d9445ad	0.07239852
169	0x3d1bf503	0.03807546
170	0x3d16640a	0.0367165
171	0xbe18f2a3	-0.14936309
172	0xbd2fd410	-0.042926848
173	0x3e0a3c97	0.13499676
174	0x3c73e2a1	0.0148855755
175	0xbdae865f	-0.08521723
176	0x3a74476f	0.0009318506
177	0xb8da0cc2	-0.000103974264
178	0x3e02d2ee	0.12775776
179	0xbd2818d3	-0.0410393
180	0x3dc87244	0.097874194
181	0x3db70973	0.08937349
182	0x3ddb3d8f	0.10705101
183	0x3d3a2316	0.045443617
184	0x3d44c9e8	0.048044115
185	0x3c994cc1	0.018713357
186	0xbda11e7a	-0.07867141
187	0xbd43a86c	-0.04776804
188	0x3c66a9f4	0.014078606
189	0xbc3a6fb6	-0.011379173
190	0xbdaa1d9b	-0.08306428
191	0xbaf9614f	-0.0019026193
192	0x3d6a27c6	0.057166837
193	0xbc991a0a	-0.018689174
194	0x3cf6f5ec	0.030146562
195	0xbcfa3867	-0.030544473
196	0x3d6a9c61	0.05727804
197	0xbcc37b2d	-0.023862446
198	0x3dd1cbd9	0.10243959
199	0xbc1dc02d	-0.009628338
200	0x3c5d1ae2	0.013495179
201	0xbddd3834	-0.108017355
202	0x3ddfe10f	0.109315984
203	0xbd089d45	-0.03335311
204	0x3d64bdf8	0.05584523
205	0xbd3eef40	-0.046614885
206	0xbdd4db90	-0.10393441
207	0xbd10880a	-0.035285987
208	0xbdcd5ea8	-0.1002782
209	0x3d05bfef	0.032653745
210	0xbc93db23	-0.018048828
211	0xbcdf8fb9	-0.027290212
212	0x3d982bd5	0.07430235
213	0x3d40363c	0.046926722
214	0xbdd844dd	-0.1056001
215	0xbd7abf9d	-0.061217893
216	0x3d229eda	0.039702274
217	0xbd2b2db3	-0.04179163
218	0x3cc383a7	0.023866488
219	0xbc605de5	-0.013694261
220	0x3cafd184	0.02146221
221	0xbd1bb895	-0.038017828
222	0x3c88a1a9	0.016678648
223	0xbc85b7e4	-0.016323037
224	0xbd8413fe	-0.06449126
225	0xbcf6840b	-0.03009226
226	0x3b72a0d2	0.0037022126
227	0x3dad9550	0.08475745
228	0xbc748352	-0.014923887
229	0xba9f3b44	-0.00121484
230	0x3dc280e6	0.09497242
231	0x3dae5c98	0.085137546
232	0xbb3cbc39	-0.0028798713
233	0xbd826ec1	-0.06368781
234	0x3d40aa00	0.047037125
235	0x3d12704f	0.035751637
236	0xbd959fbf	-0.0730586
237	0xbd8ebd1d	-0.06969664
238	0x3c46fff3	0.012145984
239	0x3dbd8ff6	0.09255974
240	0xbd93d604	-0.072185546
241	0xbccd4975	-0.025059441
242	0xbcdd3b3d	-0.027005786
243	0xbdcee067	-0.10101395
244	0xbdcecf8b	-0.100981794
245	0x3d5ec111	0.05438334
246	0x3d866f1a	0.0656416
247	0xbd94cbf6	-0.07265465
248	0x3d0161b4	0.031587318
249	0xbd839c54	-0.064263016
250	0x3d1c43c2	0.038150556
251	0xbd84fa3a	-0.064930394
252	0xbd68bcf8	-0.05682084
253	0xbce446f7	-0.02786587
254	0x3c41c631	0.011827038
255	0x3dc872c0	0.09787512

fc.bias f4 [32]
0	0x3da1a1ef	0.078922145
1	0xbcc9530e	-0.024575736
2	0x3deae61a	0.1146967
3	0xbd45db77	-0.048305
4	0xbdd4dc73	-0.1039361
5	0xbc754cbc	-0.014971908
6	0x3dc20548	0.094736636
7	0xbd8bc337	-0.06824344
8	0x3e10f85f	0.14157246
9	0xbd8aae00	-0.06771469
10	0xbc742a5e	-0.014902679
11	0xbd2e90b4	-0.04261847
12	0xbd33e740	-0.04392171
13	0x3db14ef5	0.08657638
14	0xbd2295c6	-0.039693616
15	0xbd811f06	-0.063047454
16	0xbb88af66	-0.0041712997
17	0x3db4df58	0.08831662
18	0x3d262df0	0.040571153
19	0x3ce2420d	0.027619386
20	0xbc75bddd	-0.01499888
21	0x3d871228	0.0659526
22	0x3d084f73	0.033278894
23	0x3d72abd4	0.0592459
24	0x3b0ef558	0.0021813717
25	0x3d4c109d	0.04982053
26	0x3d98ac6a	0.074547604
27	0x3c6d39d6	0.014479121
28	0xbdc8e630	-0.0980953
29	0x3d5e6e53	0.054304432
30	0xbdc1d117	-0.09463709
31	0x3d276685	0.040869255
