Paper/Finding Users Who Act Alike_Transfer Learning for Expanding Advertiser Audiences/Code/models/affinity_mlp.pth (torch, 200890 bytes, 5 tensors)

net.0.weight f4 [256, 128]
000000 6e 7b 72 bd 58 ba e0 3c ed ae 2d 3d bc 12 8b 3d
       -0.059199743 0.027432606 0.04240315 0.06790683
000010 4c b8 78 bd 20 0e 5c bb 18 7c bd 3d 7e cf b1 bc
       -0.060722634 -0.0033577755 0.09252185 -0.021705385
000020 db b3 b4 bc 74 cf 9a bd 1a 7a 9b 3d fb c8 95 bb
       -0.022058418 -0.075591 0.075916484 -0.004571078
000030 0f d7 8f 3d 25 fa ea 3c f2 00 0a 3d 47 d3 b7 3d
       0.07023441 0.028683731 0.033692308 0.08975845
000040 95 98 c1 3c bf 29 99 3c 05 73 c8 bc 48 71 83 bc
       0.023632327 0.018696664 -0.024468908 -0.016045228
000050 09 80 a6 bc 49 d6 84 3d f5 78 18 3d 8d 89 32 bd
       -0.020324724 0.06486184 0.03722473 -0.04358821
000060 5b f3 83 bd 83 d6 a6 3d 32 ff 38 3d 9f a6 11 bd
       -0.06442901 0.081463836 0.04516525 -0.035559293
000070 82 b3 a9 3b 59 a6 17 bd e8 8b 7b 3d f7 f4 83 3c
       0.0051788697 -0.037023876 0.061412722 0.01610802
000080 22 b4 1d bd db fd 97 bd f6 91 0b 3d 9b 06 54 3d
       -0.038501866 -0.07421466 0.034074746 0.051764112
000090 d1 14 f6 bc 58 c4 e6 bc 16 06 04 bd 18 d3 9f bc
       -0.030039223 -0.028169796 -0.032232367 -0.019509837
0000a0 aa b6 6e bd f6 09 fb 3c 4b c5 f2 bc 83 2b 94 3d
       -0.05827967 0.030644398 -0.029635092 0.07234862
0000b0 13 7e 99 bb fd dd 0d bd 40 4e 3e 3c 36 eb e7 bb
       -0.0046842187 -0.034635533 0.011615336 -0.0070776
0000c0 40 d4 b6 3b 21 a0 2f 3c 87 fc 70 3d ee 6e 93 bd
       0.0055795014 0.01071933 0.05883458 -0.071988925
0000d0 bd eb 61 bc 51 db bc bc c0 44 8a bc 0a eb c0 b7
       -0.013789115 -0.023053797 -0.016878486 -2.2997632e-05
0000e0 ba 67 06 bd 8b d4 a9 bd 7a 2f e0 3c e3 0f 2f 3b
       -0.032813765 -0.082924925 0.027366389 0.002671235
0000f0 c8 d0 0b bc 9f 21 bd 3d a4 09 84 bd 25 dd 8d bd
       -0.008533664 0.09234928 -0.06447151 -0.069269456
000100 18 8d 6e 3d 63 66 05 bd 39 04 9f bd a2 fe 48 3c
       0.058240026 -0.032568347 -0.07764477 0.01226774
000110 94 c7 ce 3c bf ba 22 3d 98 55 84 bd 58 e9 64 3d
       0.02524165 0.039728876 -0.06461638 0.055886596
000120 2c 88 64 bd 4e 2a 58 3d 8c ef 3b 3d 17 4c 78 bd
       -0.055793926 0.05277472 0.045882747 -0.06061944
000130 76 c8 83 bd 80 9f 81 3c bf 3b 84 3d d3 09 87 3d
       -0.06434719 0.015823126 0.06456708 0.06593671
000140 ff c5 0e 3d 03 51 84 3d a9 fa 2a bd 7b 38 02 bb
       0.034856793 0.06460764 -0.041742954 -0.001987009
000150 02 82 5e 3d 4d 24 93 bd 3b ed 8a 3b e4 4e ff 3c
       0.054323204 -0.07184658 0.004239706 0.031165548
000160 90 b8 3d 3d b8 bd ed 3b d3 0c a0 bd 36 05 25 3b
       0.04631859 0.0072552823 -0.07814946 0.0025180108
000170 bf 2b 35 bd 18 00 9f 3c 7e 6c 0e bc f6 48 09 bd
       -0.044231173 0.019409224 -0.008692859 -0.033516847
000180 23 f3 1f bd 6f 35 f4 3c 18 82 6d 3c da 59 61 bd
       -0.039050233 0.029810635 0.014496349 -0.05501733
000190 c5 2d 5c 3d d6 ea e9 3c 18 39 8b 3d ca 75 53 3d
       0.053754587 0.028554361 0.06797999 0.051626004
0001a0 fe e4 a8 3d 97 50 8a bd ca 7a 8b 3d ce 5d b0 3d
       0.08246802 -0.067536525 0.068105295 0.08611642
0001b0 60 d5 b9 3d b2 b0 4f bd 15 2b 97 3d 67 46 c4 bc
       0.09073901 -0.05070562 0.07381264 -0.023959352
0001c0 fa 87 8a bd 5d 47 91 3c cc 36 48 bb 31 08 b1 3c
       -0.06764217 0.017734224 -0.003055024 0.021610351
0001d0 07 53 86 3d b2 89 89 bc 28 d3 69 bd c9 86 81 3d
       0.06558805 -0.016789291 -0.05708614 0.06324536
0001e0 82 e5 4f bd b2 10 8b 3a 86 be 9d bc c3 56 35 3d
       -0.050755985 0.0010609834 -0.019255888 0.044272196
0001f0 36 97 c6 bc a8 c5 33 bd f6 42 75 3b c4 91 0f bc
       -0.024242025 -0.04388967 0.0037423945 -0.008762781
000200 46 3e 92 bd 15 41 b8 3c 4e 21 8d 3d 0d 47 e9 bc
       -0.07140784 0.022491971 0.06891118 -0.028476262
000210 2f e8 27 bd 07 b9 b2 3c 40 ac 94 3c 9a 3c 47 3c
       -0.040992912 0.021816744 0.018148541 0.012160445
000220 2f 18 38 bd dc 65 4b bd 92 c9 f2 bc fa 49 c9 3b
       -0.04494494 -0.049657688 -0.029637132 0.006142852
000230 2a 6d 8f bd 10 ea a8 bb b1 48 56 bd 28 cd dd bc
       -0.07003243 -0.0051548555 -0.052315418 -0.027075365
000240 f7 e2 75 bd 03 37 79 bd 31 ae 20 bd 7b 57 9c bd
       -0.060030904 -0.06084348 -0.039228622 -0.07633873
000250 ac 71 e7 bc a5 dc ba 3d 97 5b 87 3d e9 a5 a4 3d
       -0.028252445 0.09124116 0.06609266 0.08039457
000260 41 1f a1 3d 2a 1d 15 bd 81 37 a0 bd 92 4e 91 3d
       0.07867289 -0.036404766 -0.078230865 0.07095064
000270 04 51 da bc 05 a7 5a bd 6b 5d 84 3d 8c 2b 80 3b
       -0.02664996 -0.05338194 0.064631306 0.003911441
000280 86 71 e9 bb 15 88 33 3d c1 59 55 3d fe 84 b2 bd
       -0.0071241288 0.04383095 0.05208755 -0.087167725
000290 bf d2 b4 3d 08 2e ed 3c 6b df b2 bd 55 ff 99 bd
       0.08829259 0.028952613 -0.0873402 -0.07519404
0002a0 48 c0 04 3d 59 23 98 bd 28 ae 19 3d a9 70 85 bc
       0.032409936 -0.07428617 0.037519604 -0.016289072
0002b0 97 3c 92 3d e0 9e 3b bd 74 4a 19 bd 01 be 9f bd
       0.07140463 -0.045805812 -0.03742452 -0.07799912
0002c0 c5 2c 0d 3c be 22 9a bd 64 d6 78 3d 4d 17 ac bd
       0.008616631 -0.07526158 0.060751334 -0.08402882
0002d0 03 72 29 bc f2 9a b1 3c 17 c5 a7 3d 22 62 37 3d
       -0.010342124 0.021680329 0.08191889 0.04477132
0002e0 aa f5 f1 bb d0 ca 4e 3b 08 70 28 bd 2c 31 a2 3d
       -0.0073840218 0.003155399 -0.041122466 0.07919535
0002f0 51 1f ee 3c 0a 38 48 3d 98 a2 cf bc 57 0d a0 3c
       0.029067667 0.048881568 -0.025346085 0.019537611
000300 27 34 9e 3d 38 e2 bb 3d e0 a7 2c bd ea 12 16 bd
       0.07724791 0.09174007 -0.042152286 -0.03663913
000310 e6 e4 d9 3c 9a e6 df bc bc 34 b0 bc 10 a5 cc 3b
       0.026598405 -0.02733164 -0.02150952 0.006245263
000320 6e fe 30 3d 45 8f 87 bd 84 9f 66 bd 21 ff 43 bd
       0.043211393 -0.06619123 -0.05630447 -0.04785073
000330 cc f8 4c bd 85 31 70 3d 08 d1 0e bc 4f cc c2 3b
       -0.05004196 0.058640976 -0.008716829 0.0059447656
000340 a2 85 28 3d 83 98 1d bc 80 36 ad bd e9 4c d8 bb
       0.041143067 -0.009618881 -0.08457661 -0.0066009653
000350 c6 25 95 bd 65 d4 12 bd 87 d8 1b bc f9 8b aa 3d
       -0.07282595 -0.035847086 -0.009512073 0.08327479
000360 8b d7 ad 3d 8c 09 ea bc da 77 65 bd 15 2f b4 bb
       0.08488377 -0.028569005 -0.056022502 -0.0054987767
000370 83 5f 5e 3d 15 65 63 bd c3 87 0b bd 27 09 2a 3c
       0.054290306 -0.05551632 -0.03406502 0.010378159
000380 99 ed a1 3d 7c 9c ae 3d 39 52 51 3c 67 c6 aa 3d
       0.07906646 0.08525941 0.012775951 0.083386235
000390 d4 df 9a 3b b7 69 0d bc a6 8e 67 3d 89 1d 9d bd
       0.0047263894 -0.008631161 0.056532525 -0.07671649
0003a0 6c 99 58 bd 36 be 93 3b 5c 76 ec 3c 0f 42 3f bd
       -0.05288069 0.004508759 0.028865032 -0.046693858
0003b0 ff 59 9f 3c b8 32 b5 bc 74 7f 22 3d 72 c2 4a ba
       0.019452093 -0.022118911 0.03967233 -0.0007734663
0003c0 e5 ee ff 3b 77 fd 5b bd 2e 54 07 3c 01 1c d2 bb
       0.007810461 -0.05370852 0.008259816 -0.0064120297
0003d0 dc 60 7c 3d 3a e4 f2 3c fb 4d f4 bc ae 51 f3 bc
       0.06161581 0.029649843 -0.02982234 -0.029702034
0003e0 3b 14 9b 3d 42 c8 79 3d 56 23 86 bc 29 23 b4 3d
       0.07572218 0.060981996 -0.016374271 0.08795769
0003f0 7d b4 9f 3d 2f fe 09 3d 8c 3b 86 3c ac 0a 70 3d
       0.07798097 0.033689674 0.016385816 0.058603927

net.0.bias f4 [256]
000000 70 4b 9e bd a0 40 85 3d 8c f5 e9 bb 1e a8 40 bd
       -0.07729232 0.06506467 -0.007139867 -0.04703533
000010 e1 6e 57 3d b9 4e 5a 3d bd 1e 55 3c cf 22 3a 3d
       0.052595977 0.053297732 0.013007817 0.045443352
000020 4a 4b 90 3d 8b 9f f1 bc 0e 68 1a b9 e7 66 1b bd
       0.0704561 -0.029495021 -0.00014725348 -0.037939932
000030 55 2d 86 3d 93 f8 59 bd b6 84 b6 3d 32 eb ef ba
       0.06551615 -0.053215574 0.08912031 -0.0018304347
000040 30 c7 5a bd ab ba 9f bd b6 f4 a4 bd 1c d0 90 bd
       -0.053412616 -0.07799276 -0.080544874 -0.07070944
000050 54 29 b8 3d 71 9a c0 3d b3 28 8c bd 60 12 84 bd
       0.08992258 0.09404457 -0.068437 -0.06448817
000060 a1 66 04 bc 07 37 23 3c 9a 4e 94 bd 64 f3 6d 3d
       -0.008081109 0.00996185 -0.072415546 0.058093444
000070 cd 8d 41 bb 3f 3f c3 3d 94 c3 06 bd a3 5f 86 3d
       -0.0029533983 0.095335476 -0.03290136 0.0656121
000080 96 e1 13 3d e0 0f 59 bd 71 df 39 bd 80 54 67 3d
       0.036103807 -0.052993655 -0.045379106 0.05647707
000090 46 7e b8 3b ae 6d a2 3d b2 5d a4 bd 4d 7a 4f 3d
       0.0056302873 0.07931076 -0.080256835 0.050653744
0000a0 82 85 c8 3b 73 5e bf 3c 62 56 18 3c 95 93 14 bd
       0.006119431 0.023360467 0.009297939 -0.036273558
0000b0 c4 59 86 3b 0f 35 e6 3c 16 53 fc bc 04 29 af bd
       0.0041000564 0.028101472 -0.030801337 -0.08552745
0000c0 20 92 12 bd cc 2a 0c 3c 3c 65 b9 bc 99 3f 31 bd
       -0.035783887 0.008555125 -0.02263128 -0.043273542
0000d0 93 21 92 bc 57 aa 59 bd c7 61 5b bd c2 2b 16 bd
       -0.017838275 -0.053140964 -0.053560045 -0.036662824
0000e0 50 a5 94 3d 7a 4d 27 3d f4 98 70 3b 59 20 78 3d
       0.07258093 0.04084537 0.003671226 0.060577724
0000f0 69 02 84 3d b6 cb 87 bb 1e f8 53 3d 5e 2e 60 3d
       0.06445772 -0.0041441573 0.051750295 0.05473172
000100 61 32 32 3d cb 05 28 bd a2 d9 7a bd 47 01 88 bd
       0.043505076 -0.04102115 -0.061242707 -0.06640869
000110 b6 7d 8d bc d0 78 9e bd c9 91 8f 3c c3 b1 4d 3d
       -0.017271858 -0.07737887 0.01752557 0.050218355
000120 aa a3 f0 bc d8 dd ad bc 3d 4d 90 3d 6e 84 85 3d
       -0.029374916 -0.021223947 0.07045982 0.065193996
000130 57 3c 2f bd bc 47 aa 3d aa b2 fe bb 4c 64 ac bd
       -0.042782154 0.083144635 -0.0077727633 -0.084175676
000140 fa cf 98 3d 68 87 97 bc 4d 9c b3 bd ad 56 d7 bc
       0.074615434 -0.018497184 -0.087700464 -0.026286447
000150 79 e1 91 3d c4 e8 9e 3d 20 8a a1 3d 52 34 b6 3d
       0.071230836 0.0775924 0.078876734 0.08896698
000160 fc 5a c4 bc f2 f1 87 3d 68 03 e5 3c 49 13 25 3d
       -0.023969166 0.06637944 0.027955726 0.040301595
000170 f1 5a 96 bd c0 d2 82 3c a2 32 af 3d de a0 b5 3b
       -0.073415644 0.015969634 0.08554579 0.0055428585
000180 d5 ec 9f bd 2d 21 35 bd 4a d8 9d 3d ad f2 1d bd
       -0.07808844 -0.044221092 0.077072695 -0.03856151
000190 9a 71 8c bd ce 48 97 3c 56 97 ba bb 02 d3 c4 3d
       -0.06857605 0.018467333 -0.00569431 0.09610559
0001a0 47 8c 0a 3d 5f 84 85 3d e8 b7 99 bd ad c2 2a 3b
       0.033825185 0.065193884 -0.075057805 0.0026055977
0001b0 74 56 50 bd 2c ab 8a bc 79 99 81 3d 57 1c 9a 3c
       -0.050863698 -0.016927324 0.06328101 0.018812342
0001c0 87 72 09 3d 2a 9f ba 3d a6 2d 9e bd 82 87 57 3d
       0.033556487 0.091123894 -0.077235505 0.052619465
0001d0 53 da 9f 3d a5 70 0d 3d 34 c6 0a 3d 45 0e a1 3d
       0.07805314 0.034531254 0.033880427 0.0786405
0001e0 5c 0b 82 3d 07 e9 c1 bc 48 f8 87 3c ec d8 94 3d
       0.06349823 -0.023670686 0.016597882 0.07267937
0001f0 fa 91 44 bd 92 6b 17 3c f6 f5 f0 bc b3 69 9d 3d
       -0.047990777 0.009241955 -0.029414158 0.07686176
000200 00 ef 4a 3d fd b5 6c 3d ee 68 97 3d 1e 71 a6 3d
       0.049544334 0.057790745 0.073930606 0.08127044
000210 52 68 ea bc ad 1a 36 bd 5c b0 4e 3d 99 14 a8 3d
       -0.028614197 -0.044459034 0.05046116 0.08207054
000220 9a 47 3e bd cf 66 03 3c 40 db 1a 3d 05 57 04 bd
       -0.046455003 0.008020117 0.03780675 -0.03230955
000230 83 7d 88 3d 46 05 90 bd ee c5 6e bc fc 6b d6 3c
       0.066645645 -0.07032256 -0.014573557 0.026174538
000240 14 ad 5c bb 92 ac 1b 3d 89 f3 28 bd 8b fb 73 bd
       -0.0033672499 0.038006373 -0.04124788 -0.059566062
000250 84 63 e5 bc cf f8 e0 3c 82 66 7a 3d 78 e3 30 bd
       -0.028001554 0.027462391 0.061132915 -0.04318568
000260 c5 f6 5e 3c 1a eb 49 bd c7 75 91 3c 71 27 64 bd
       0.013608639 -0.049296476 0.017756356 -0.055701677
000270 ed f7 f2 bc 2d c8 8d 3d 5d 50 9f 3d 5f 08 4a bd
       -0.029659236 0.06922946 0.07779 -0.04932439
000280 3c 83 07 3d 17 78 e5 3b 72 33 ac bd 73 37 aa 3d
       0.03308414 0.007002841 -0.0840825 0.08311357
000290 e4 89 f5 bc cb e3 31 3d f6 98 84 3d 96 67 98 3d
       -0.029972978 0.04343013 0.064744875 0.074416324
0002a0 89 63 8e bd e7 99 2c 3d 11 f7 ac 3c 02 dd 5e bd
       -0.069525786 0.04213896 0.021113904 -0.05440999
0002b0 66 c9 8d 3a 98 26 94 3d 2a e3 42 bc 07 95 c5 3d
       0.0010817468 0.07233924 -0.01189498 0.09647565
0002c0 a2 9a 29 3d 05 b9 af 3d 60 b7 8d 3c 19 70 bf bd
       0.041407235 0.085802115 0.017299354 -0.09347553
0002d0 33 fe b9 3b bb 5d 6b 3b 99 2e c3 bb 6b 99 4b 3d
       0.005676055 0.0035914022 -0.0059564826 0.049706858
0002e0 c8 94 c6 bc 08 00 e6 bc 26 78 4d 3d 32 9f 27 3d
       -0.024240866 -0.028076187 0.05016341 0.040923305
0002f0 75 5b 94 bb 9b f3 92 bb 19 8b a1 bd 1f 9f 95 3d
       -0.004527504 -0.0044846064 -0.07887859 0.073057406
000300 3d 19 be 3d 90 13 bb bd 25 06 a0 3d 2f 96 96 3d
       0.092821576 -0.091345906 0.07813672 0.07352864
000310 c9 2d ad bd 20 17 94 bc 84 4a 96 bc c7 7d 4d bd
       -0.084559985 -0.018077433 -0.018346079 -0.05016878
000320 de 1a db 3c 08 86 97 bb f9 8d 51 bd 5e 0a 81 bd
       0.02674621 -0.004624132 -0.051160786 -0.063008055
000330 08 7e 43 3c bb 6e 41 bb 30 91 11 bd 5c 5c 3a 3c
       0.011931904 -0.0029515463 -0.035538852 0.011374559
000340 eb 0a 80 bd 10 6f 65 bd c3 44 9c bd 40 a4 6b bd
       -0.062520824 -0.05601412 -0.07630303 -0.057529688
000350 79 8a 98 3d d3 49 a2 bc fe 01 01 bd 65 20 0a bb
       0.074482866 -0.019810593 -0.03149604 -0.0021076438
000360 fd c1 a6 bd 81 46 92 bd d5 cd 0c 3d ab de be 3c
       -0.08142469 -0.07142354 0.034375984 0.023299536
000370 a6 54 b5 3d 86 2c 33 bd b0 99 91 bc 36 d4 b4 bd
       0.08854036 -0.043743633 -0.01777348 -0.088295385
000380 a8 59 05 bd 86 36 cb 3c 0f 22 3b bd 0b 00 98 bc
       -0.032556206 0.024806272 -0.045686778 -0.018554708
000390 67 81 8b bd 23 32 4d 3d 4a 8e 17 3d bd da 14 3d
       -0.06811791 0.050096642 0.03700093 0.036341418
0003a0 d0 e8 22 bd 2c 0d 15 3a cd ec 2d bc 88 12 9e 3d
       -0.03977281 0.00056858617 -0.01061554 0.07718378
0003b0 74 c3 85 bd 8f 51 93 3d 17 e1 6d bd fa ae 8f bd
       -0.0653142 0.071932904 -0.05807599 -0.07015796
0003c0 95 10 79 3d b5 7b 78 bc 82 4a 25 bd 9e 57 4d 3d
       0.06080683 -0.015166213 -0.04035426 0.050132386
0003d0 8d 2b 2f 3c 8a 18 9d bc c8 8b 86 bd aa 27 8e bd
       0.010691536 -0.01917674 -0.0656963 -0.06941159
0003e0 5a 3f 09 bd 24 25 48 3d fa 8e 7e 3d 93 09 92 bd
       -0.033507682 0.048863545 0.06214807 -0.071307324
0003f0 c2 8d 33 bd df e6 2d 3c ac a2 2f bd 74 11 0d 3c
       -0.043836363 0.010614126 -0.042879745 0.008610118

net.2.weight f4 [64, 256]
000000 39 00 00 3d 44 2a 8a bd e4 8b 69 bd ba a4 dc 3c
       0.031250212 -0.06746343 -0.057018176 0.026934016
000010 38 d9 1b bd fd 1f 03 bc 8b de 74 3c 3e 7d 14 bb
       -0.038048953 -0.008003232 0.0149456365 -0.0022657658
000020 84 24 d9 bc e5 b4 3c bd f8 ee 4f 3d 8c 6b d8 bc
       -0.02650667 -0.046070952 0.050765008 -0.02641847
000030 89 a5 08 bd 84 1a 4d bd f6 c1 1a 3d 76 c9 3e 3d
       -0.03336099 -0.050074115 0.03778263 0.046578847
000040 74 f7 cb 3c d4 5a 1e bd a6 db 85 3d b2 8f eb 3a
       0.024898268 -0.03866084 0.06536035 0.0017971902
000050 19 a0 26 bc c7 ad 4d bd f6 78 5c bd 57 0e de bc
       -0.010170006 -0.050214555 -0.053826295 -0.027106447
000060 0b 1a 3a 3d de 30 44 bb c8 0a 22 bd f5 f5 3e 3d
       0.045434993 -0.0029936354 -0.039561063 0.04662128
000070 7f 93 bc bc 9b 41 80 bd 6d a3 81 bc 7f 8a 41 3d
       -0.02301955 -0.06262513 -0.015824998 0.04725122
000080 6d cd 2d 3d 8a d6 90 3c 87 a6 62 bd ef f7 69 3a
       0.042432237 0.017680425 -0.055334594 0.00089251896
000090 a0 41 32 3d a9 b7 4c bb 0c d2 64 bc c4 36 75 bd
       0.043519616 -0.00312374 -0.013966095 -0.05986668
0000a0 1f 8c 5a bd f0 23 cf bc 1d 98 34 3d de 80 3a 3d
       -0.053356286 -0.025285691 0.04409038 0.045533054
0000b0 63 eb 51 bd 8c 60 2d 3b b6 a0 7d bc 3c 71 51 3d
       -0.051249873 0.0026455252 -0.015480211 0.05113338
0000c0 83 ee 0d bc 85 70 a9 3c 81 ef 8c 3c 6e d8 e1 3c
       -0.008662823 0.020683536 0.017204048 0.027569022
0000d0 e7 2a 94 bc 1b a0 7c bb 3a e4 01 3d 5e e1 1b bd
       -0.018086864 -0.0038547579 0.031711794 -0.038056724
0000e0 28 7d 21 bd 00 36 1d 3d 44 fe 17 3d 22 e8 6a bd
       -0.039426 0.038381577 0.03710772 -0.057350285
0000f0 0c ab 05 bc 4e 6b 4e bd bb 1a 68 3d 70 4e 85 bd
       -0.0081584565 -0.050395302 0.056666117 -0.065091014
000100 6c e6 c8 bc 8c 25 22 bc f5 94 27 3d ca 98 0a bc
       -0.024523936 -0.009896647 0.04091354 -0.008459279
000110 fc 89 a7 3c ac 57 68 3d cf 0c 66 bd 1d 5b 02 bc
       0.020451538 0.056724235 -0.05616456 -0.007956293
000120 20 65 e1 3c 29 50 6d bd 60 3a eb bc bf 8b ff bc
       0.02751404 -0.057937775 -0.028714359 -0.031194566
000130 96 81 6e bc 1d 2f 6c bc 6a 75 10 3d b4 63 c3 bc
       -0.014557263 -0.01441553 0.035268225 -0.023851253
000140 8d ad 12 bc 40 7a 30 3c 98 3f f4 3c ec 37 27 bc
       -0.008952511 0.010771334 0.02981548 -0.010206204
000150 74 65 2e 3d a4 1b 18 bd 72 79 d8 3c a6 4c 58 bc
       0.042577222 -0.037135735 0.026425097 -0.013201868
000160 5d 57 2b bc c0 b3 82 3c aa 8b 77 bd 0e 8c 81 bc
       -0.010457841 0.015954852 -0.06043593 -0.015813854
000170 44 79 fd bc 50 1a 26 3d b1 49 e9 bc cb 96 91 3c
       -0.030941613 0.040552437 -0.028477522 0.017772099
000180 7a 13 bf 3c 66 3b ee 3c 57 cb a2 bc ce 23 3b 3d
       0.023324717 0.029081058 -0.01987235 0.045688443
000190 66 90 75 3c de cd 7a bd 79 9f 64 bd e9 be 05 bd
       0.014988041 -0.061231486 -0.055816147 -0.03265277
0001a0 00 37 ea bb 6b c9 d7 bc 9a 11 ac bc 80 35 62 3d
       -0.00714767 -0.02634116 -0.021004487 0.055226803
0001b0 28 d2 38 3d ab 76 75 bc 9b 12 a8 3c 1a da 8d bc
       0.045122296 -0.014981906 0.020516684 -0.017315913
0001c0 72 74 1c 3d 25 73 02 bd 6f 4b 2d 3d 83 36 4b ba
       0.03819699 -0.03184809 0.042308267 -0.00077519583
0001d0 5b e7 9d bc 9f c9 8e bc fd 3d 0f 3d c3 1c 89 b9
       -0.019275358 -0.017430125 0.034971226 -0.00026152105
0001e0 d0 91 4e 3d 8b 00 a8 bc 64 a1 53 3d 8e c8 8d bc
       0.050432026 -0.020508071 0.051667586 -0.017307546
0001f0 44 fa a2 ba da 9d 20 bd ef 74 b2 bb e7 ae 5c bd
       -0.0012434204 -0.03921304 -0.0054460685 -0.053877737
000200 29 ea 08 bc 02 5f 3d bd 8e d7 3b 3d 5f 09 fe 3c
       -0.008356609 -0.046233185 0.045859866 0.031010328
000210 92 50 cb bc 8e f9 7e bd c6 91 e4 bc 8e 9b 61 bd
       -0.024818692 -0.062249713 -0.027901541 -0.05507999
000220 70 3c 92 3b 12 c8 0a bd a7 11 39 3c a9 22 1e bd
       0.004462771 -0.03388221 0.011295713 -0.038607273
000230 8d cc 12 3d 11 d8 08 3d 20 50 06 3c 5c 93 20 bd
       0.035839606 0.033409182 0.008197814 -0.039203033
000240 81 d0 60 bd 04 11 fd 3a b0 44 7d bd f0 ef 20 bb
       -0.054886345 0.0019307439 -0.061833084 -0.0024557076
000250 38 26 3d 3c 50 d0 86 bd e6 ce 6a 3d b2 d5 4a bd
       0.011544757 -0.06582701 0.05732622 -0.049520202
000260 00 3a 7f bd 4a 4a 20 3d f7 c7 22 3d 26 33 45 3d
       -0.062311172 0.039133348 0.039741483 0.048144482
000270 fc 43 0c bd bc 07 58 3c 67 84 11 3d a9 bf 0a bd
       -0.034244522 0.013185438 0.03552666 -0.033874188
000280 93 a2 17 bd c8 bf 08 bc 26 f5 99 bc 91 c7 50 bc
       -0.037020277 -0.008346505 -0.018793654 -0.012742893
000290 2e 74 01 ba be dd 7c bc 8b b1 b5 ba 8c d9 e8 bb
       -0.00049382716 -0.015433727 -0.0013862116 -0.0071060117
0002a0 4e f4 12 bd c2 e5 8d 3c f2 5c 25 bd 22 ad 22 3c
       -0.03587752 0.017321471 -0.040371843 0.009928973
0002b0 ae f9 90 bb e2 9c 89 bd 68 7b 5a 3c c2 9c 91 3c
       -0.0044242954 -0.06719376 0.013335086 0.017774943
0002c0 f8 dc dc bb d4 e7 29 bd 32 4c 87 bd 41 f5 c5 3b
       -0.0067402087 -0.041480854 -0.0660633 0.0060411994
0002d0 a9 b2 58 bd 9a b6 0f bd 7f 72 6d bd f2 45 59 bc
       -0.05290476 -0.03508625 -0.05797052 -0.013261305
0002e0 a8 27 df 3c 6e ea 0b 3d cb 34 4e 3d a9 65 f6 bc
       0.02724059 0.034159116 0.050343316 -0.030077772
0002f0 41 71 c2 bc 02 90 b8 3c 84 da 17 3d fe df 9d 3c
       -0.023735644 0.022529606 0.037073627 0.019271847
000300 fa 42 38 3d 48 bf 42 3c f2 a1 37 3d 00 e1 5f bd
       0.04498575 0.011886425 0.044832177 -0.054657936
000310 7f 84 51 3d ed e8 8f bb e1 68 7b bd 1b 04 46 bd
       0.05115175 -0.0043917806 -0.061379317 -0.04834376
000320 1b 9f c9 bc 4a 5e 34 bd 49 e5 04 bd 4e 88 13 bc
       -0.024612 -0.044035234 -0.032445226 -0.009004666
000330 00 31 ae 3b 92 a9 10 bd ce f2 48 3d d4 ab d8 3b
       0.0053159 -0.035317965 0.04905968 0.0066122804
000340 78 45 43 3d c8 4c f6 3c e7 01 96 3c 46 96 fe bc
       0.047673672 0.030065909 0.018311454 -0.031077515
000350 1f 32 78 bd 99 2e 4c 3d 0a 94 9a 3c 5c 25 26 bd
       -0.060594674 0.049849126 0.018869419 -0.040562972
000360 20 8a 51 3d f1 d3 9e 3c e4 24 56 bd cd 6f 7d bd
       0.051157117 0.01938817 -0.052281275 -0.0618742
000370 41 24 57 bc 56 78 be 3c e6 b2 96 3c 0a da f2 bb
       -0.013131202 0.02325074 0.018395852 -0.007411246
000380 ca 41 d7 3c 8e a1 df bc 11 bc b2 3c 77 42 1a bc
       0.026276488 -0.027298715 0.021818193 -0.0094152605
000390 16 fb bb 3c 2e 59 33 3a e3 c9 95 3b cc ab 30 bd
       0.022946876 0.0006841597 0.004571186 -0.04313259
0003a0 60 77 2a 3d 0c 86 59 3d de 70 38 bd 3f 86 91 bc
       0.04161775 0.053106353 -0.045029514 -0.017764209
0003b0 88 e2 41 bb 3c 45 62 3d 68 97 05 bc b6 51 3a 3d
       -0.0029584486 0.05524181 -0.008153774 0.045488082
0003c0 06 ee 50 bc 7c ac 6a bc aa 75 17 bc 82 71 81 bd
       -0.012752062 -0.01432335 -0.009244362 -0.06320478
0003d0 a0 4b aa 3a b0 8b 67 bb 5a 50 7e 3b 56 fb 35 3c
       0.0012992509 -0.0035331063 0.0038805217 0.011107286
0003e0 50 01 95 bc b4 ad 4b bc 35 c2 1d 3c 34 0b 4e bd
       -0.018189102 -0.012431551 0.009628822 -0.050303653
0003f0 52 79 83 bc 96 ee cf 3b 0c fd 0a 3d 78 1f 79 bc
       -0.016049061 0.0063455803 0.03393273 -0.015205257

net.2.bias f4 [64]
000000 cf e2 68 bb 7c 0b 21 3a 6d 71 f3 3c 32 ad 4f bd
       -0.003553558 0.0006143374 0.029717172 -0.05070228
000010 24 6d 03 3d fd dd 12 3c a6 cd 17 bd 58 fa a7 bc
       0.032086506 0.008964059 -0.037061356 -0.020505115
000020 d9 ad a2 3c e9 52 22 3d da e2 3d bd 09 6f e3 bc
       0.019858288 0.03962985 -0.04635892 -0.027762907
000030 c6 c7 c7 3b 10 87 0d 3d 2e 76 39 bd 0d b3 f5 bc
       0.006096813 0.034552634 -0.04527872 -0.029992605
000040 20 23 f9 3b 15 bd 19 bd 22 42 4f 3b 14 51 62 bd
       0.007603064 -0.03753384 0.0031625112 -0.055253103
000050 82 d1 6d 3c 18 37 f9 3a 88 89 f1 3c 9c c6 20 3d
       0.014515283 0.0019013612 0.029484525 0.03925191
000060 59 de 0e 3d ae 16 3f bc c6 f0 3e 3c 38 79 bd 3c
       0.034880016 -0.011663122 0.011654085 0.02312909
000070 c2 cb 66 bd 71 a0 3a bc 92 0d ab bc b0 38 0f bd
       -0.056346662 -0.011390791 -0.020880494 -0.03496617
000080 80 96 71 bd b4 01 2c bd 38 f8 28 bd 4e 94 2d bd
       -0.05898142 -0.04199381 -0.041252345 -0.042377762
000090 3f 80 37 3d d8 fa 2a bc ae 81 24 bd 8e 8d aa bb
       0.04480004 -0.010435782 -0.040162735 -0.005204863
0000a0 9e 1e 73 3b 52 0f 12 bb 40 88 0a bc 5e e0 7b 3d
       0.0037097107 -0.0022286964 -0.008455336 0.06149327
0000b0 67 4b 00 3d 35 a8 2c 3d 00 a7 1c bd 33 f6 68 3d
       0.03132191 0.042152602 -0.0382452 0.05687542
0000c0 34 48 b8 3c 16 f6 7c bd 28 d3 7a bd 70 e5 cf 3a
       0.022495367 -0.061758123 -0.06123653 0.0015861224
0000d0 36 15 53 bd 6d 7f 8f 3d 38 5a 19 bd 76 33 67 bd
       -0.0515339 0.070067264 -0.037439555 -0.05644556
0000e0 c9 b4 27 3d f9 b0 32 3b 19 81 0b 3d 88 18 62 bd
       0.040943895 0.0027266128 0.034058664 -0.055199176
0000f0 f8 ad e6 3b 8e 0c a3 3b 98 69 6c bd 8a 00 02 3d
       0.0070397817 0.004975862 -0.05771789 0.031738795

net.4.weight f4 [1, 64]
000000 8f 4e bb 3c 86 c7 e5 3d 99 76 cd 3d 50 80 36 ba
       0.022864608 0.11219697 0.10032386 -0.0006961869
000010 8b 46 70 bd 7d fb d9 bd 8c 64 cc bd a8 48 15 bd
       -0.058661025 -0.10643671 -0.09980115 -0.036446244
000020 cd 6f 02 be 25 c8 16 3c 49 87 b7 3d 63 0a fb 3c
       -0.12737961 0.009202992 0.089613505 0.030644601
000030 5a cc cb 3d f8 71 3e 3d 54 53 7d 3c 83 9c f0 3d
       0.09951086 0.046495408 0.0154617615 0.11748602
000040 7c e3 6f 3d 84 d3 f5 3d 03 ea 9a bd 28 d3 6d 3c
       0.058566555 0.12003234 -0.075641654 0.014515676
000050 cd c9 64 bd cc f5 7a 3d 4c d6 d7 bd 89 60 87 bd
       -0.055856515 0.061269566 -0.10538921 -0.066102095
000060 e8 3e a9 bd 5c b4 e4 bc 5a aa a7 bd 8b be ad 3d
       -0.082639515 -0.027918033 -0.08186789 0.08483609
000070 b8 cf 4a bc 4b be 50 bd 58 99 c3 3d 58 ce ee bd
       -0.012378626 -0.050962728 0.095507324 -0.11660451
000080 26 63 d0 bc 1a 49 c1 3d 9d 70 33 3d c3 a4 c1 bd
       -0.025437903 0.09437771 0.04380857 -0.09455254
000090 e8 02 f5 3c 80 61 8f bd a8 6c 03 3d e3 33 2a 3b
       0.029908612 -0.070010185 0.032086045 0.0025970868
0000a0 1c 5f ec bd c6 7c 92 3d 63 82 b3 3d ad 7b 9b bd
       -0.11541578 0.07152705 0.08765104 -0.07591949
0000b0 af da 04 be eb 0c a0 bc 48 5b 9f 3d f1 f3 11 bd
       -0.12974046 -0.01953741 0.077810824 -0.03563303
0000c0 fe cb ad bc 56 86 d3 bd 9a d8 40 bd e2 33 f1 bd
       -0.021215435 -0.10328357 -0.047081567 -0.11777474
0000d0 36 aa c0 3d db 6f 00 be 92 3d 17 3d 26 84 b3 3d
       0.09407465 -0.1254267 0.036923952 0.0876544
0000e0 75 0b 6a bd 84 e7 ef 3d 88 9a b2 bd f8 15 1f bd
       -0.057139833 0.1171408 -0.08720881 -0.03883931
0000f0 1f 12 b4 bd 36 d1 ca ba d0 73 5b bd ad 6f b1 3c
       -0.08792519 -0.0015473727 -0.053577244 0.021659696
